image_classification_CNN/1734448311.8315692/best.pth (torch, 548188 bytes, 8 tensors)

conv1.weight f4 [16, 3, 3, 3]
000000 ac 7a ee 3d 28 fa 31 bd b7 9e 14 3e 58 db 54 b8
       0.116444916 -0.04345146 0.1451367 -5.074902e-05
000010 ea fd 48 3e 31 b2 21 3e 72 83 6d 3e 4f e8 1f 3e
       0.1962811 0.15790631 0.23194674 0.15615962
000020 b0 3d ae 3b 37 03 fb bd 5a fb 11 3c 20 62 9f 3d
       0.0053174123 -0.122564726 0.008910025 0.07782388
000030 4a 92 00 3e bf 1f ad 3d 26 39 67 3d 75 7e 42 3e
       0.12555805 0.08453321 0.056450985 0.18993552
000040 17 dc b6 3c d2 5f a9 bd d1 c9 09 3e 03 97 fa 3d
       0.022321744 -0.082702294 0.13455893 0.122358344
000050 78 72 31 3e 3e 15 f6 3d 38 de d1 bd 86 bb 91 3d
       0.17328823 0.120157704 -0.10247463 0.071158454
000060 e4 6f 86 3e 31 13 72 3e da 77 1f 3e be 52 8a 3c
       0.2625724 0.23640133 0.15573063 0.016885158
000070 c9 2f 02 bd 1d 68 a0 bd aa 6f 84 bd 60 5d 69 bd
       -0.031783853 -0.07832358 -0.06466611 -0.056973815
000080 7e 3a 07 3e 60 c7 86 be f9 51 06 3e 93 6a 1b be
       0.13205907 -0.26323986 0.13117208 -0.15177374
000090 37 74 45 3d b1 f6 10 be e3 0d ee 3d 80 38 01 be
       0.048206534 -0.14156605 0.116237424 -0.1261921
0000a0 00 0e be bd d6 98 8c bd e8 38 1c 3e 13 2e 5b 3e
       -0.09280014 -0.06865089 0.15256083 0.21404295
0000b0 44 b1 32 3e fe 90 e3 3d 4e da 03 3e 40 6d b0 3d
       0.17450434 0.111116394 0.12876245 0.08614588
0000c0 3c 6d fc bd 2a 99 26 3e 4b f1 4f bd 9d 84 3b 3e
       -0.12325522 0.16269365 -0.050767224 0.18312307
0000d0 d8 74 26 3e bd 88 86 3d 57 aa 16 3e 3a 13 20 3e
       0.1625551 0.065690495 0.14713417 0.15632334
0000e0 07 2d cf 3d ce 0a 36 3e f1 10 1b 3d 7c 75 a2 bd
       0.1011601 0.17777559 0.037857953 -0.079325646
0000f0 3a f2 6d bd b7 6d 28 bd d7 23 96 3d 32 b6 f4 bd
       -0.058092333 -0.041120257 0.07331055 -0.119488135
000100 24 8e f6 bd 3b 5e 00 be 06 aa 3b be e1 42 0a 3e
       -0.1203883 -0.12535946 -0.18326578 0.13502075
000110 c6 db 39 be 16 94 a1 bd 46 b7 2b 3e 93 11 14 be
       -0.18150243 -0.07889573 0.16769132 -0.14459829
000120 01 35 7f 3c 85 f7 16 bd 77 4f ff 3a 54 fd 30 be
       0.015576602 -0.036857147 0.0019478638 -0.17284137
000130 c5 cc 02 3d 26 7f 88 3d e6 6e 39 3e cd c7 bc 3c
       0.031933565 0.06664877 0.1810871 0.023044491
000140 e8 f1 71 3c b3 bd 75 3d e5 35 12 3e 15 f4 9d 3d
       0.014767148 0.059995364 0.14278372 0.077125706
000150 72 c2 22 3e eb 18 00 3d 68 f3 1c 3e aa d4 87 3e
       0.15894488 0.031273764 0.15327227 0.26529437
000160 8e f5 8d 3e 40 cc 6a 3e 01 2b ee bc a8 73 2f bd
       0.27726406 0.22929478 -0.02907324 -0.042834908
000170 9c 34 02 3e c1 30 aa 3b d1 b4 fe 3d 3d 72 52 3e
       0.12715381 0.0051938 0.12436832 0.20551391
000180 1b ca 89 3e b4 47 0b 3e 66 a2 47 3e a2 5f 91 3c
       0.26912007 0.13601571 0.19495544 0.017745797
000190 f2 68 28 3c 8d 20 ce 3d 1b f5 7f 3e 26 02 8d 3d
       0.010278927 0.10064802 0.24995844 0.068851754
0001a0 fc 58 ce 3c d8 3f 22 3d 32 95 00 3e c4 c5 16 3e
       0.025188915 0.039611667 0.12556913 0.14723879
0001b0 40 42 0f 3e d3 9f 28 3e c8 a4 22 bb fb b2 d3 3d
       0.13990116 0.16467218 -0.0024817456 0.10336872
0001c0 14 e4 3f 3d 15 80 b9 3d 8b 3b bb bd b0 57 1d 3e
       0.04684837 0.09057633 -0.09142216 0.15365481
0001d0 c7 28 b9 bd c0 39 29 bd 42 94 4c 3e 8f 81 1c 3e
       -0.09040981 -0.04131484 0.19978431 0.15283798
0001e0 fc 8d 81 3e 59 3a 52 3e cf 4d 9e 3d 01 77 83 3e
       0.25303638 0.2053007 0.077296846 0.2567673
0001f0 39 54 1e 3d c3 d5 7b 3e 55 c6 f8 bd ca e5 81 3d
       0.03865454 0.24593262 -0.12147204 0.06342657
000200 7d 0f db 3d 5f 50 96 bd e5 8f df bc e3 8d fb 3d
       0.106963135 -0.07339548 -0.027290294 0.12282922
000210 fc a3 1e bd ac e8 73 bd c8 75 4d bc 21 15 b7 3d
       -0.038730606 -0.059548065 -0.012540288 0.08939577
000220 11 b8 c0 bc a2 24 1f 3e 8a 34 db 3d c0 83 97 bb
       -0.02352527 0.15541318 0.107033804 -0.00462386
000230 97 00 89 bc b6 6e 01 be 1d 63 85 bd e2 58 6c 3d
       -0.016723914 -0.12639889 -0.06513045 0.057701953
000240 d5 3f 18 3e 9f f1 89 bd cf a4 b1 bc cb 00 c6 bd
       0.148681 -0.06735539 -0.021685032 -0.0966812
000250 14 62 11 be 3e 54 38 be dc ce dd 3d eb 4a 86 bd
       -0.1419757 -0.18000886 0.10830471 -0.06557258
000260 cc 4c 9d bc 25 70 fb bd 14 d8 6b be bd a6 01 be
       -0.019201659 -0.12277249 -0.23031646 -0.12661262
000270 de 4c 37 be 84 6a 86 bd 2d 86 aa bd f5 2d 70 3d
       -0.17900416 -0.06563285 -0.08326373 0.058637578
000280 83 ae 9a 3c 33 54 13 be 7c 64 51 bd 49 99 1a be
       0.018882042 -0.14387588 -0.05112122 -0.15097536
000290 62 04 53 be 88 cb 43 be 15 64 82 bd 86 cb 15 3e
       -0.2060714 -0.1912061 -0.063667454 0.1462842
0002a0 9f 05 3f be 6e 85 49 bd 26 2d f3 3d b3 d0 0c 3e
       -0.18654488 -0.049199514 0.11873846 0.13751487
0002b0 86 22 0e bd 47 79 04 be 12 cf 1d 3b 8f f0 1e be
       -0.034700893 -0.12936889 0.0024079722 -0.15521453
0002c0 ab b5 0d be 08 3d 6d bd 4a 6b 12 3d 37 ce 1b 3e
       -0.13838832 -0.057919532 0.03574685 0.15215383
0002d0 cc be 41 3e 92 47 28 3d 80 50 f4 3d 7f 1a ec bd
       0.1892044 0.04108388 0.11929417 -0.11528491
0002e0 0c a2 7a 3e 1a 6b 71 3e 14 ea 67 3b f8 4d b4 bd
       0.24475878 0.23576012 0.0035387324 -0.08803934
0002f0 fb 4e 1e 3e 80 c0 9d bd 01 bc 98 bd 2e 72 a3 3d
       0.15459816 -0.07702732 -0.07457734 0.079807624
000300 75 bd fe bd ff 5c 5b bd 62 67 44 be 32 3b 47 be
       -0.1243848 -0.053555485 -0.19180062 -0.19456175
000310 00 d7 47 bc e6 05 62 be 62 60 92 3d 84 b8 c0 3c
       -0.012197256 -0.22072563 0.0714729 0.023525484
000320 c8 4d cb bd 57 80 03 be 20 88 32 bd 16 f1 87 3d
       -0.09926945 -0.12841927 -0.04358685 0.0663778
000330 76 2e c6 3c 8b a6 06 3e 08 89 13 3e 4e ba 14 3e
       0.024192076 0.13149469 0.14407742 0.14524195
000340 c3 27 12 3e fe fb 99 bd f4 50 5c 3e 34 d3 78 3e
       0.1427298 -0.07518767 0.21515256 0.24299318
000350 05 2c 5d 3e 42 d2 e8 3d d7 96 14 3e b7 40 48 3e
       0.21598823 0.113682285 0.14510666 0.19555937
000360 87 e3 ed bd 84 f3 8e 3d 40 15 24 3e 30 e5 38 bd
       -0.11615663 0.06980041 0.16023731 -0.045140445
000370 99 38 0e be cd 03 35 be 5a f8 c7 3d 39 1b 3e 3e
       -0.13888778 -0.17677231 0.09764166 0.18565072
000380 e5 97 fe 3d df 0e 42 be 2a 7a 43 be b8 19 8c bc
       0.12431315 -0.18950985 -0.1908957 -0.017102107
000390 c5 58 57 3d 4d 9f 1a 3e 74 7c 0a bd eb 67 38 3e
       0.05257489 0.15099831 -0.033810094 0.18008392
0003a0 7e c1 f8 bd 6c e8 f5 3b b1 25 6b bd 33 6f de bd
       -0.12146281 0.0075045135 -0.057408992 -0.10861053
0003b0 65 7f 11 be a4 24 f6 bd 23 6c 3f be e7 2f 7f bd
       -0.14208753 -0.120187074 -0.18693595 -0.062301543
0003c0 1d f3 00 3e b2 25 0c be 3b 6b d7 bc e2 8d 8f 3c
       0.1259274 -0.13686255 -0.026296249 0.01752371
0003d0 bd ae a0 bd 8f 35 58 bd 47 9c 44 3e 5b 04 99 bd
       -0.07845829 -0.052785452 0.1920024 -0.07471534
0003e0 86 5b 25 be ac bb 09 be 15 a1 59 bb 50 d3 b5 3d
       -0.16148195 -0.13450497 -0.0033207585 0.08878195
0003f0 75 29 23 bd ef ea f3 3c 00 95 39 3e 98 ce ec bd
       -0.03983446 0.029775111 0.18123245 -0.11562842

conv1.bias f4 [16]
000000 1b 04 45 bc 7d 37 b2 3d 6b a6 00 3e 6f 0d 7a 3b
       -0.012024905 0.0870199 0.12563483 0.003815498
000010 d1 b7 fb 3d a9 50 94 bd ab 42 97 bd f3 d1 20 3e
       0.122909196 -0.07241947 -0.07385763 0.1570509
000020 85 27 b2 bc ce 0a 60 3e 7b 1c 12 3e fd 52 4d be
       -0.02174736 0.21879122 0.14268677 -0.20051189
000030 b5 2e 6c 3c bd 0d 35 3e 43 d4 50 be 44 04 8f 3c
       0.014415433 0.17681022 -0.20393471 0.017458089

conv2.weight f4 [32, 16, 3, 3]
000000 90 ce 30 3d 85 b3 82 3c c1 c6 de 3c c3 6d 0d 3d
       0.043165743 0.015954742 0.027194383 0.034528505
000010 b2 ac 05 3d d9 92 74 3d 03 2a 9d 3d 10 0b fc 3d
       0.0326354 0.059710357 0.07674029 0.123067975
000020 a0 5b 86 3d d4 7f 0f 3d 42 bb 9a 3d da 2c 85 b7
       0.06560445 0.035034016 0.07555248 -1.5875721e-05
000030 6a 04 b3 3d 3a 82 84 3d b6 cf fe 3d 30 78 8d 3d
       0.08741076 0.06470151 0.124419615 0.069076896
000040 d0 78 02 3d 06 1e ed 3d e2 8c fa 3d 7e 78 64 3c
       0.031853497 0.11577992 0.122339025 0.013944743
000050 7e e6 7e bc ee 35 02 3e a2 18 6b 3d fe c3 77 bb
       -0.015557883 0.12715885 0.05739654 -0.003780603
000060 06 a6 9d 3d 45 d5 e8 3d 1f 6b 1d bb 3c 69 9d 3d
       0.07697682 0.11368803 -0.0024020148 0.076860875
000070 d1 02 82 3d 7c 3b cc 3d 1d ab 91 3d f4 78 1f 3e
       0.063481934 0.09972283 0.071127154 0.15573484
000080 4f 16 05 3e 24 de bc 3d 52 40 ec 3c e9 98 a6 3d
       0.12996791 0.092220575 0.028839264 0.08134634
000090 4e 12 7c 3d bf 1b b0 bc 8c 82 b7 bc aa 96 9c 3c
       0.061540894 -0.021497605 -0.022401117 0.019114811
0000a0 05 50 bc 3d 04 bb f8 3d de 51 92 3d ee df 84 3d
       0.0919495 0.121450454 0.07144521 0.06488024
0000b0 18 54 70 3d 23 12 36 3d 90 56 d6 3c e9 16 63 3d
       0.058673948 0.04445089 0.026164323 0.05544177
0000c0 49 53 ae bd 53 cb 98 3c 1a 2a 03 bc cb 05 fc bd
       -0.08511979 0.01865164 -0.008005643 -0.123057924
0000d0 c9 22 07 bd a3 d0 7c bd 38 b6 f1 3d 23 20 cf 3d
       -0.032992158 -0.06172241 0.118023336 0.101135515
0000e0 24 9d b7 3c 8a 7c 8f bc 2c ad b0 3c ae e7 4e 3d
       0.022413798 -0.01751544 0.02156695 0.050513916
0000f0 10 ed c1 3d 54 3d ad 3d f3 ac 89 3d 5a 75 10 3e
       0.09469044 0.08458963 0.067224406 0.14107266
000100 2e a0 17 3e 4e 7c 20 3d 0c a7 29 3c 08 0e 03 3e
       0.14807197 0.039181046 0.0103547685 0.12798321
000110 cc 0e 9c 3d 2f 19 59 3c 58 52 76 3d b2 ad 19 3e
       0.0762001 0.013250633 0.060137123 0.15007666
000120 1c 5d 80 3c f7 c6 84 bc ac 2b a4 bd 2d 5f 65 bd
       0.015669398 -0.016208155 -0.08016142 -0.05599897
000130 32 e7 db 3c 91 ad 90 3c c6 07 50 bc 74 c9 d5 bc
       0.026843641 0.017660888 -0.012697166 -0.026097037
000140 8d 6a e1 bd 8a f3 cc 3d 8e 37 c1 3d 18 a0 76 3d
       -0.11006651 0.10007389 0.09434424 0.06021127
000150 c8 a9 91 bb 82 dd dc 3d 42 df a4 3d e8 5a e8 3d
       -0.0044452883 0.10784437 0.080503955 0.11345464
000160 1d 5c 69 3c f7 4a 95 bb 89 63 b2 3c 50 88 7a bc
       0.014243153 -0.0045560556 0.021775978 -0.0152912885
000170 64 1c 48 3d 92 c1 02 3e f4 db 32 3e 3a 7f f5 3d
       0.0488552 0.12769154 0.17466718 0.11987157
000180 e9 3b 27 3e 20 2e 40 3e 78 c1 fa 3d 07 84 3f 3d
       0.16331448 0.18767595 0.122439325 0.04675677
000190 6a ce 5b 3c 4b e9 3b 3d c5 e8 ba bc f5 d8 43 3d
       0.013415912 0.045876782 -0.022816071 0.04781433
0001a0 bc 4e 92 3b 9f 3d 06 3b fe 99 5d 3d 86 1f 10 bd
       0.0044649523 0.0020483506 0.054101937 -0.035186313
0001b0 e4 ea 28 bc 71 a7 e0 3d 7a 64 81 bc 4d f5 14 3e
       -0.010309909 0.10969437 -0.015794981 0.145467
0001c0 d0 e8 e9 3d 36 23 ba 3d 8d fc 05 3d 58 a8 27 3e
       0.114213586 0.09088747 0.032711554 0.16372812
0001d0 89 6e 1b 3e 29 1d cd 3c 2d 6c b4 3d cc 1d 22 3e
       0.15178885 0.025038319 0.088096954 0.15831679
0001e0 d3 29 a5 3d 10 eb f8 3c 06 be ff 3d fe 77 23 3d
       0.08064618 0.030385524 0.12487416 0.039909355
0001f0 3f e4 fc 3d 49 95 45 3d 15 b0 63 bd fb 2e 3e bd
       0.12348222 0.048238073 -0.055587847 -0.046431523
000200 3a 8b 20 bd 7d d6 0b 3c 9a f0 79 3d a0 42 59 bd
       -0.039195277 0.008535025 0.06102047 -0.053042054
000210 dc 75 82 bd 34 5a be 3d f6 32 88 3c 47 0b 33 3d
       -0.06370136 0.09294549 0.016625863 0.043711927
000220 45 67 27 bd 07 07 43 bd 2e 3c c9 bd 5a 99 b0 bd
       -0.04086997 -0.047614124 -0.098259315 -0.086229995
000230 72 1c b2 bc e6 3e 89 bd 5d 63 ea 3c fc 33 6a bc
       -0.02174208 -0.0670145 0.028611833 -0.014294621
000240 c2 39 22 bb f6 52 9e 3d a2 33 6f 3d 7d 96 0a bd
       -0.0024753665 0.07730667 0.05839885 -0.033834923
000250 55 3e 1b bd bb bc 9f bd 21 bc f1 3c 26 ec 8d bd
       -0.03790124 -0.07799669 0.029508652 -0.06929807
000260 57 01 26 bd 58 ba 80 bd c8 84 44 3d 3a aa e6 3c
       -0.04052862 -0.06285542 0.047978193 0.028157342
000270 2a 5d 85 bc c6 34 52 38 c9 a9 bf 3c 7a 9f 30 bc
       -0.016279776 5.011705e-05 0.02339639 -0.01078021
000280 76 97 1f 3d 7b 14 85 3d ec ef c1 bd 3c a8 16 3d
       0.038962804 0.06498047 -0.094695896 0.036781535
000290 58 fd d2 bc 05 25 93 bb 93 fc 83 bd c7 04 0e bd
       -0.02575557 -0.004490497 -0.06444659 -0.034672525
0002a0 d5 b0 c2 bc 22 1a 2b 3d 1e 7c bf bd a3 10 07 bd
       -0.02376596 0.04177297 -0.09349845 -0.03297485
0002b0 53 9c 49 3c 49 a3 be bd cf d3 a5 bd bc f8 4f bd
       0.012305337 -0.09308488 -0.0809704 -0.05077432
0002c0 9b d3 eb bc bb 99 ad bd cc 22 c4 bb 0b 7c f0 3c
       -0.028787425 -0.084765874 -0.0059855934 0.029356023
0002d0 87 98 15 3c 6b b7 12 bd 6d 16 10 3d a0 e8 b1 bd
       0.009130604 -0.035819452 0.035177637 -0.08686948
0002e0 3b 88 b8 bb 0a 05 12 bd 69 c3 68 bd bb cd 03 bd
       -0.0056314743 -0.035649337 -0.056826983 -0.03217862
0002f0 12 96 9b bc ea 07 9a 3d 2f 43 99 bd 37 6e 97 3c
       -0.018992458 0.07521041 -0.074835174 0.018485172
000300 ac 99 22 3d fb 37 6e 3c e0 a5 47 bc 72 2c 90 bc
       0.039697334 0.014539714 -0.012185544 -0.017599318
000310 f2 48 45 3d 39 5d 9a bc 28 3c 0a 3c 84 da f4 3c
       0.04816527 -0.01884328 0.008437194 0.029889353
000320 df e5 4c bd b2 9f 52 bd 56 3d 63 bd e3 88 57 3c
       -0.05002391 -0.05142183 -0.055478416 0.013155195
000330 a1 b9 3f bc 9b d9 b6 3d f5 a7 cd ba 6f 50 bc 3d
       -0.011701972 0.08928224 -0.0015690314 0.09195029
000340 ed 3d bc 3d c3 2c 92 bd f4 c7 66 3c dd 08 71 3b
       0.09191499 -0.07137444 0.0140857585 0.0036778965
000350 c2 13 a6 3c 9c b4 24 3d 39 7f 30 bd 0a 0b e6 3b
       0.020273093 0.040211305 -0.04309008 0.007020359
000360 15 0b 6d bb d5 74 a4 3a 22 30 57 bc e9 d2 3d bd
       -0.0036169935 0.0012547026 -0.013134034 -0.046343718
000370 c7 fd 79 bc 93 17 43 3d 32 11 ab bd 60 ff 4d 3d
       -0.015258259 0.047629904 -0.08352889 0.050292373
000380 5c e8 8a 3d 9c 88 34 bd 07 a4 85 3d c1 55 fc bc
       0.067826 -0.044075593 0.06525426 -0.03080261
000390 e7 38 4f 3d 3a 68 03 bd f7 da 53 bd d2 6a c9 bd
       0.050591376 -0.03208182 -0.051722493 -0.098348275
0003a0 1d 9d 5e 3d 63 24 22 bd ad 42 c3 bd 08 e2 c8 bd
       0.054349054 -0.039585482 -0.09534202 -0.09808737
0003b0 6b e4 b0 bd a8 17 b6 bc c5 de d1 3c 4f f3 1b bd
       -0.08637317 -0.022228077 0.02561892 -0.038073834
0003c0 0e ba 3a bd b5 a0 6b bc cd ee 01 be ea 68 0c 3d
       -0.04558759 -0.014381577 -0.12688752 0.03427974
0003d0 db 2b 59 3d 74 7b 83 3d f4 a4 c4 3d 3a 9b ac 3d
       0.05302034 0.06420031 0.09601775 0.084280446
0003e0 5b e2 e0 bc ba aa a9 3d 1f 05 4e 3c cd 0b ca bc
       -0.027451685 0.08284517 0.012574463 -0.02466383
0003f0 03 4a b2 bd 1b f8 96 bd ec 28 04 bd f7 f1 c3 bd
       -0.08705523 -0.07371541 -0.03226559 -0.095676355

conv2.bias f4 [32]
000000 05 a2 1d 3a d0 c2 32 bd e5 39 c3 38 bf a8 4c 3d
       0.00060132175 -0.04364282 9.309108e-05 0.049965616
000010 16 7b 7e bc bd 46 96 bc 65 7f 9e 3c ce c0 0d 3d
       -0.015532276 -0.018344278 0.019347856 0.0346077
000020 c5 c1 18 bd 0e 34 aa ba 1e 96 9e 3c 8d df 31 3d
       -0.037294168 -0.0012985484 0.01935869 0.043426085
000030 3e 47 44 3d a8 03 09 3d 17 37 84 bd 07 cf a2 3d
       0.047919504 0.033450752 -0.0645582 0.079496436
000040 32 8a d9 bc c6 33 90 bc cd ea 1f 3d f7 65 55 3c
       -0.026555154 -0.017602812 0.039042283 0.013024799
000050 fa 32 3e 3d 53 05 47 3c d6 4c bd bb 03 c0 10 3c
       0.046435334 0.0121472655 -0.005776982 0.008834842
000060 97 ca 9b 3d 54 46 e3 3c b3 62 86 3c 1c f5 b0 bd
       0.07607 0.027743496 0.016404485 -0.08640501
000070 46 b0 b6 3d 60 6e 43 3d e8 53 1c bd a2 d9 42 bd
       0.0892034 0.047712684 -0.038165957 -0.047570832

fc1.weight f4 [64, 2048]
000000 a5 7b bf bb 07 1b 17 bc ff 47 58 3c 20 bf 14 bc
       -0.005843597 -0.009222752 0.013200759 -0.009078771
000010 b6 10 c4 bc 7d ef 91 3b 68 60 90 bc 90 be 48 bc
       -0.02393375 0.004453598 -0.017624095 -0.012252465
000020 a2 7f 9e bc 08 ad 69 bb 3e 6a 37 3c a0 6e d3 bc
       -0.01934797 -0.0035656113 0.011194764 -0.025809586
000030 6c 7a 4d bc 8c 35 2c 3b 06 cd bd bb 1b af 58 3b
       -0.012541395 0.0026277034 -0.005792263 0.0033063355
000040 2e 3d 4d bc bd 85 95 bc 89 0d 35 3c 59 61 da bc
       -0.012526793 -0.018252248 0.01105059 -0.026657747
000050 26 a3 09 bc 9f ac 22 3c b1 81 3b bc 54 a0 a2 bc
       -0.008400714 0.009928851 -0.011444495 -0.019851841
000060 2c de c0 bc 20 65 1e bc 45 f0 ec 3b 7d 85 5a 3b
       -0.02354344 -0.009667665 0.007230791 0.0033343725
000070 37 38 a7 bc f2 6e a6 3a d4 64 3c bc 3c 13 31 3b
       -0.020412548 0.0012697859 -0.011498649 0.0027019521
000080 99 d6 b7 bc 92 5f ae 3b 3d 56 d0 bc 60 15 1f 3c
       -0.022441195 0.0053214515 -0.025431747 0.009709686
000090 b2 9d 85 bb 2b b3 de bc d9 19 8b 3b 87 ab 19 bc
       -0.0040776366 -0.027185043 0.0042450246 -0.009379274
0000a0 be e2 69 bc 6a bb 05 3b 46 27 27 ba f6 28 a0 3c
       -0.014275251 0.0020405897 -0.00063763966 0.019550782
0000b0 40 c3 b9 3b 31 7e c0 bc b2 c5 e4 3b 75 5a 9e bc
       0.0056690276 -0.023497673 0.006981575 -0.019330243
0000c0 5e f1 12 3c 33 69 4d bc df b1 f2 3b b6 79 5b 3c
       0.008968679 -0.0125372885 0.007406458 0.013395717
0000d0 2a e9 7f bc d4 3f 8a bb 52 5e 7e bc 19 36 9b bc
       -0.0156195555 -0.0042190347 -0.015525417 -0.018946694
0000e0 d6 5e 17 bc e0 ee 27 bc d8 1a 21 bc 2d c6 1e 3c
       -0.009238919 -0.010249823 -0.00983306 0.0096908035
0000f0 a1 4e 87 3c 74 b1 a6 3b c7 f8 11 3b 58 53 74 bb
       0.016516985 0.005087072 0.0022273527 -0.0037281122
000100 7c ba d1 bc bf e2 9c 3b eb f2 f3 bb 4e a2 98 bc
       -0.025601618 0.0047877724 -0.0074447296 -0.01863208
000110 6e 8a 20 3c 10 cd be bc 7e ae cf 3b 60 19 ae bb
       0.009798629 -0.02329114 0.0063379398 -0.0053130835
000120 c2 85 d4 38 ad 6f c5 bc 27 09 88 3c 58 bf 40 3c
       0.00010133862 -0.024101103 0.016605927 0.01176437
000130 00 52 18 bb d8 46 46 3c a4 e4 0b bc 8b 0a 5a 3b
       -0.0023242235 0.012101851 -0.008538399 0.0033270444
000140 66 0b 35 3c 73 28 c5 3a 25 6b db bc aa 5d b1 bc
       0.011050081 0.0015041962 -0.026784489 -0.021651108
000150 2d 80 f6 3b 42 00 f9 3a 2c 8d 4e 3b b1 fe ac bc
       0.007522604 0.0018997269 0.003151725 -0.02111754
000160 15 28 61 3c 6d dc 13 bb 7b 7c de bc de 71 37 3c
       0.013742466 -0.0022561804 -0.027158966 0.011196582
000170 f9 3c d9 bc d5 b4 51 bc a3 62 c6 3a 96 6d 52 3a
       -0.026518332 -0.012799461 0.0015135597 0.0008027194
000180 34 80 c8 bb a5 6f 68 3c fb 33 9a bc de b5 8b bc
       -0.0061187986 0.014186774 -0.018823614 -0.017054494
000190 d0 52 f8 bb d1 ae cd bc b3 8c 97 bc 6e 5a 6b 3c
       -0.0075782314 -0.025107773 -0.018499708 0.014364822
0001a0 dd cc 26 bc 38 32 aa bc 92 f8 99 bb 48 f5 83 3b
       -0.010180679 -0.0207759 -0.0046988213 0.0040270425
0001b0 6f 97 1e bc f7 66 96 bc d7 f1 11 3c fd 9a 17 3b
       -0.009679659 -0.018359644 0.008907757 0.0023133152
0001c0 0f 23 b9 bb 3a b9 d4 bc 1d 6e 62 3c 7b 00 4d 3b
       -0.0056499313 -0.02596723 0.013820198 0.0031280804
0001d0 06 12 8f bb 62 f0 59 bc 6c c5 b9 bc f8 d5 d3 bc
       -0.0043661622 -0.013301941 -0.022677146 -0.025858864
0001e0 91 40 03 3c 78 c6 08 3c dd cb 87 bc d1 53 2d bb
       0.008010999 0.0083481 -0.016576702 -0.0026447664
0001f0 e8 68 ac 3b c3 44 f8 b9 d0 7e 97 3b ee 9e ee bb
       0.0052615292 -0.00047353478 0.0046232715 -0.0072821295
000200 b9 5d 0d bc 98 98 11 bc 3f dd 8b 3c b1 85 5c bc
       -0.008628302 -0.008886479 0.017073272 -0.013459609
000210 15 f4 81 3c d7 3a cb 3b c9 80 2c bc 12 04 9f bb
       0.015863458 0.0062020826 -0.010528752 -0.00485278
000220 cb 47 6c bc a4 65 36 bc ab b8 a8 bb 2d 45 0f 3c
       -0.014421414 -0.011132631 -0.0051489673 0.00874452
000230 9d 4f 68 3c ed 55 3f 3c b9 1f 7c 3c 2d 87 82 bc
       0.014179138 0.011678201 0.015388423 -0.015933597
000240 ee 3f 0a 3c 9d c7 63 bc 92 2b 87 3c 95 c7 76 3c
       0.008438094 -0.013902572 0.016500268 0.0150622325
000250 d1 de 5e bb 6d c2 2b bc 58 49 a9 3c 69 2c 8d 3c
       -0.003400732 -0.010483366 0.020664856 0.01723309
000260 9b 69 2c 3a 14 b4 89 bb 08 9b 69 bc a8 8a 6d bb
       0.0006577016 -0.004202375 -0.014258154 -0.0036245976
000270 de 35 89 bc 5d a9 11 3c 0e ae 42 bc 72 85 56 bc
       -0.016749319 0.008890477 -0.011882318 -0.013093339
000280 55 b3 9a bc 0a a7 f3 bb fb 44 85 3c be 94 47 bc
       -0.01888434 -0.007435684 0.016268244 -0.012181459
000290 2a 1a ae 3b e3 23 7b 3c b6 7f 24 3c cf 4e dd ba
       0.0053131776 0.01532838 0.010040214 -0.0016884449
0002a0 92 86 3d 3c 90 67 92 bc 8f 48 56 bb 8a 63 d9 bc
       0.011567729 -0.017871648 -0.0032697057 -0.026536722
0002b0 a6 22 7c bb 23 ba af bc 2e c3 97 bc c4 bb 8d 3c
       -0.00384728 -0.021451062 -0.018525686 0.017301448
0002c0 a9 a5 46 3c 3a 23 4d 3c f2 b5 44 3b 01 72 79 bb
       0.012124457 0.012520606 0.0030015674 -0.0038062336
0002d0 24 f5 1e bc f1 ad 84 bc 04 90 d1 3a 63 63 45 3c
       -0.009702001 -0.016196223 0.0015988355 0.012047621
0002e0 4c 62 7e 3c bb 6f cf bc 82 8e cf 3b bb 0a 2b 3c
       0.0155263655 -0.025321832 0.006334127 0.01043957
0002f0 97 d8 f6 3a 45 82 8f 3c 88 79 70 bc 2f 48 9b bc
       0.0018832859 0.017518172 -0.014677413 -0.018955318
000300 70 48 84 3b ed 51 12 ba d7 f3 7f 3c a5 64 3f 3c
       0.0040369555 -0.0005581666 0.015622101 0.01168171
000310 3f bf 0b bb d0 09 dd bc 77 ad 2e bb cb 33 23 bc
       -0.0021323708 -0.026982218 -0.0026653686 -0.009961079
000320 1f 8d 51 bc 5f 1b f8 3b a1 a7 eb 3b 8b 20 fb 3a
       -0.012789994 0.0075716223 0.007191614 0.0019159479
000330 20 7a 4e 3c c4 6e 75 bc f5 5a 00 bc b4 3f 33 bc
       0.012602359 -0.014980022 -0.007834186 -0.010940481
000340 1c 0f 15 b9 44 a1 e6 bb 92 b7 ce bb 42 c2 a9 bc
       -0.00014215376 -0.0070382673 -0.0063085044 -0.020722512
000350 e1 de a0 bc a7 b5 c8 3b 91 6a 39 3c 6a 00 8c bc
       -0.019637527 0.0061251703 0.011316911 -0.017090041
000360 19 9d 5a 3c 45 c0 c0 bc 96 bd 4f 3b 27 6f f0 3b
       0.013343119 -0.023529181 0.0031698695 0.007337469
000370 bc 40 b5 bc 67 98 a8 bb af 58 a4 bc f5 81 3f 3a
       -0.022125594 -0.005145121 -0.020061819 0.0007305437
000380 a7 13 6c 3c 41 c4 87 bc 39 4c ea bb 2d 05 5e 3a
       0.014408982 -0.016573073 -0.0071501997 0.0008469399
000390 83 d8 3c 3c 5b 2d 15 ba 91 27 c0 bc ba 56 48 3a
       0.01152623 -0.00056906574 -0.023456367 0.0007642318
0003a0 d3 32 18 3c b4 a5 31 bc 99 ee 8a bb d1 65 b9 3b
       0.009289461 -0.010842729 -0.004239869 0.0056578894
0003b0 2f ed 82 3c 6a a5 23 3b 30 f9 e4 ba 40 ce 9a bc
       0.015982239 0.002497042 -0.0017469283 -0.018897176
0003c0 4e 93 9d bc e4 e3 95 3b 2e 60 3d ba 38 de a0 bc
       -0.01923528 0.004574286 -0.000722411 -0.019637212
0003d0 da 7f 18 3c 70 07 57 bc d2 b1 90 bb c7 df 86 bc
       0.009307826 -0.013124332 -0.004415729 -0.016464127
0003e0 7f 0a af 3b 15 07 3a 3c ea cd f0 bb d4 78 a8 3b
       0.0053418274 0.011354228 -0.0073487656 0.005141357
0003f0 7a 57 fd bb da e6 3b 3c d7 8c 79 3c 8e d0 ce bc
       -0.0077313753 0.0114686135 0.015231333 -0.025245931

fc1.bias f4 [64]
000000 db 88 82 3c 98 16 dd bc a8 d9 00 bb 27 ea 8d bb
       0.015934398 -0.026988313 -0.0019660983 -0.0043308917
000010 64 f3 06 bc 67 02 15 3d ff 36 23 bc 6b 93 1c 3c
       -0.00823674 0.036379244 -0.009961843 0.009556632
000020 4d 03 a3 bc ea 25 21 3b 8e 59 ac bc d3 7a 1f 3d
       -0.019899035 0.002458925 -0.021038797 0.038935494
000030 54 cd 58 3a c9 b9 5e bc 74 fd c7 3b 18 71 60 3c
       0.00082703424 -0.013594099 0.006103212 0.013698839
000040 3f 54 14 3c 17 f2 e0 bc fe 75 cb bc 31 66 e8 3b
       0.009053289 -0.027459187 -0.024836536 0.0070922603
000050 5a 3e 10 bc 70 eb 08 bc 26 9a 31 bc ba 34 2d 3c
       -0.008803928 -0.008356914 -0.0108399745 0.010571653
000060 f2 a1 0b 3c 37 9a 6f 3c 40 89 e6 3a 4d db 56 ba
       0.0085224975 0.01462417 0.0017588511 -0.00081961305
000070 67 57 d7 bc 26 ff 36 bc 48 ce 26 3c db af c5 bc
       -0.026286794 -0.011169231 0.010181017 -0.024131706
000080 1d 57 47 bc a2 42 9e bc 4a 9c fb 3c 04 18 2d ba
       -0.0121667655 -0.019318882 0.030714173 -0.0006603005
000090 3a 85 bb bc fb 2c 3c 3c 94 89 88 bc 85 5d 23 bc
       -0.022890676 0.011485334 -0.016667165 -0.009971027
0000a0 41 09 1e 3c 98 5b 05 bb 69 02 03 3d d0 93 81 3c
       0.009645761 -0.0020348784 0.03198472 0.015817553
0000b0 f2 b1 1f bc 65 64 e3 3c 9b fc 38 3c b1 67 95 3b
       -0.009747015 0.027757833 0.011290695 0.00455948
0000c0 06 f7 35 bc e5 e6 67 3c 2f f1 d3 bc f3 43 58 bc
       -0.011106258 0.014154171 -0.025871841 -0.013199794
0000d0 ec 6a 21 3b ef f4 17 bc 1b 02 a5 3b 19 b0 e6 bc
       0.002463038 -0.009274705 0.0050356514 -0.028160142
0000e0 68 c8 9f bc 07 46 04 3c 55 c7 71 3c c3 3b 3d 3c
       -0.01950474 0.008073336 0.014756997 0.011549893
0000f0 94 2c fc ba 89 7b 23 3c c7 88 d8 3c 1a f9 25 3d
       -0.001923936 0.009978184 0.026432408 0.040520765

fc2.weight f4 [2, 64]
000000 13 f6 2c 3d 03 76 00 3e dd ad d2 3c 2a f8 af bd
       0.042226862 0.12545018 0.02571767 -0.085922554
000010 69 fe f5 bc c8 ff c4 bd b4 19 d7 3c 7d 87 20 be
       -0.030028539 -0.09619099 0.026257373 -0.15676685
000020 b6 5f e4 3d 46 21 97 bd 3e 20 59 3d e6 f4 22 be
       0.11151068 -0.07379393 0.053009264 -0.15913734
000030 02 e0 22 3e 48 31 e0 bd f6 a3 cd bb 42 1b 12 bd
       0.15905765 -0.109469 -0.006275649 -0.035670526
000040 66 d4 d3 bd d7 a9 10 3d a4 4e 5e 3d 52 e9 de 3c
       -0.10343246 0.035318222 0.054274216 0.027210865
000050 23 a5 09 3e 7f f2 06 3c 39 b1 f0 3d 83 19 1b 3e
       0.13441901 0.0082365265 0.117525525 0.1514645
000060 d8 93 e9 bd 2f 60 a4 3d 84 63 11 be 7f 88 b1 bd
       -0.11405152 0.08026158 -0.14198118 -0.08668613
000070 f0 3b fc 3d 89 8c 02 bc c0 2c 36 bc a5 0c e6 3d
       0.1231612 -0.0079680765 -0.011119068 0.112328805
000080 b8 1e 76 3c f1 6f e6 3d e2 dd 61 bd 93 19 2f 3e
       0.015021972 0.1125182 -0.055143245 0.170996
000090 5d e5 09 3e 37 22 88 bd f1 f4 f6 3d 5f 39 0b 3e
       0.13466401 -0.06647151 0.120584376 0.13596104
0000a0 20 7d b0 3d 80 9b 1d 3e 13 fb 0a bd 7e 2a c3 3d
       0.08617616 0.1539135 -0.03393085 0.09529589
0000b0 d1 6c be 3b 6f 91 0e be cf 91 91 bc 78 ab 25 bd
       0.005811312 -0.13922666 -0.017769722 -0.04044673
0000c0 07 44 89 bd c7 91 de bd 37 63 02 3e 62 b1 01 3d
       -0.06702428 -0.108676486 0.1273316 0.031663306
0000d0 f8 d4 3f bd 0b 27 74 bc a6 82 b0 bd 45 05 17 3d
       -0.046833962 -0.014901887 -0.08618669 0.03687026
0000e0 8a 1f 16 3e 73 e5 e1 bd 9e 6e 14 3e 7c 5a 69 3d
       0.14660469 -0.11030092 0.14495322 0.05697106
0000f0 56 1f bd bd 04 ef 9c bc 78 09 2b be 8a 6a b8 bc
       -0.092344925 -0.01915694 -0.16702831 -0.02251174
000100 cd c6 91 bd a6 8e c3 bc f3 b1 55 3c e2 43 27 bd
       -0.07117996 -0.023871731 0.013042915 -0.040836222
000110 12 a8 ee bd f6 c0 98 3c 8c 2a e5 bc 04 76 59 bc
       -0.116531506 0.018646698 -0.02797439 -0.013272766
000120 04 b5 9a bd fd a8 df bc 7c 0a ee bd 07 80 e5 3d
       -0.07554057 -0.02730226 -0.116230935 0.1120606
000130 ac 23 37 be 30 3f 4f bc f6 d1 a0 3c 9b 53 bd 3a
       -0.17884701 -0.012649342 0.019631367 0.0014444472
000140 7b df c2 3d a9 3d a4 bd 31 7c b5 3d 89 73 08 be
       0.09515282 -0.08019573 0.08861578 -0.13325323
000150 70 1b c5 3c 43 89 d9 3b 19 38 0c bd 34 32 f3 bd
       0.024060935 0.0066386773 -0.034233186 -0.1187481
000160 88 63 f7 3b 09 fe ab 3d 2b 94 c2 3d 06 ad d1 3d
       0.007549707 0.08398063 0.09500917 0.1023808
000170 7b a7 84 bd 24 f7 f3 bd 17 f4 f5 3d a8 96 51 bc
       -0.06477257 -0.11912373 0.12009447 -0.012792267
000180 ae 0c b8 bd f5 e2 11 be 76 86 c3 3d be 0d 20 be
       -0.089867935 -0.14246733 0.09547131 -0.15630242
000190 ea 1b ce bd e1 05 f3 bd 07 ab 65 bd d5 57 3f 3b
       -0.10063918 -0.11866356 -0.056071308 0.002919664
0001a0 ff c6 00 be 5e ab 8f ba dc c4 09 3e 21 4c 0a be
       -0.12575911 -0.0010961106 0.13454002 -0.13505603
0001b0 8f 79 a5 3c ad 5a 2d bc 0a 1f cc 3d f2 ae e5 bd
       0.020199565 -0.010580701 0.09966858 -0.11215009
0001c0 2e 30 40 3d e3 9e 9e bc 2f 22 2e be bb f4 cd bd
       0.046920948 -0.019362872 -0.17005228 -0.10056444
0001d0 9a 29 37 be c4 29 13 3d aa b5 31 3d c8 0f 3a 3c
       -0.17886963 0.035928503 0.04338614 0.011356302
0001e0 52 18 df bc f3 c5 36 3d f2 b1 1f 3d 2f 75 37 bd
       -0.027233277 0.044622373 0.03898806 -0.04478949
0001f0 80 e2 87 3d 2c cd 96 bc 1b 2b 47 3d 7f b7 35 3e
       0.06634998 -0.01840838 0.048625093 0.1774578

fc2.bias f4 [2]
000000 5d ec f8 bd 08 df 96 3d
       -0.12154458 0.073667586
